pretrained pytorch model/model_gpu.pt (torch_old, 544213 bytes, 6 tensors)

weight f4 [150, 784]
00000000: 5266 00bc 40da 36ba d293 dd3c c510 e9bc
00000010: b1a4 053d 7f47 0dbd 412c 0a3d 5e59 cdbc
00000020: b35b e1bc c0c4 9aba ee94 e53c 30a3 513b
00000030: 4059 c7bc 32ba 353c 8078 633c 3ce2 123c
00000040: 28f9 263c 94e2 233c 9a84 8ebc 713f 123d
00000050: 2671 e63c 452b 12bd 0096 d7bb b85e fb3b
00000060: 2632 68bc 2120 f7bc 8e3a ea3c 80e5 f439
00000070: 2c02 a63c cec1 24bc 9c24 bcbb 80b8 61bc
00000080: 0bc3 c93b 1711 bdbc 9146 da3c 5447 0ebc
00000090: d69e d1bc e7f7 e23c b63e 9d3c de20 8a3c
000000a0: a279 b6bb 3e85 ca3c b948 023d 6b47 7cbc
000000b0: 2933 abbb 2ddc b83c d055 bd3c 7022 b93c
000000c0: 1c0c 2cbc 0ba1 58bc d2bd a13c 9b1e aabc
000000d0: 2a9c c4bc 068b 62bc 097f 023d 5224 943c
000000e0: f393 e9bc a6ab fe3c 5625 dd3c 8f93 1e3c
000000f0: 2b23 083d dd63 9f3c 2bae 66bc 9fc6 b4bb
00000100: ec7c abbc f8db 283c 642e 383b 11ef f8bb
00000110: 6223 5d3a 86ad cdbc 31f1 dd3b 482a 00bc
00000120: e9af aa3b f941 bd3c aaa4 553c 0f88 febb
00000130: 5997 f33b 9232 693c 3049 19bd 12f0 8dbc
00000140: 450a e33c 7d55 1a3c cfaf 103d 2a52 82bc
00000150: d07c 283c c875 d4bc 00a8 85b7 424a 90bc
00000160: 5834 acbb 3606 683c fd86 763a 6801 113b
00000170: 4631 73bc 2536 0fbc 89cb 70bc 7f70 9c3c
00000180: 6db5 43bc 9b5b df3b 5f3a 19bc af14 36bc
00000190: cf10 cebc fe2a 87bc 81e3 03bd 89fc 8f3c
000001a0: 18e4 43bd 0e51 62bd e9f5 fabc 5ca4 3cbd
000001b0: be48 cd3c e124 0d3d 899b 443c 52b8 36bc
000001c0: b8a5 ad3b 5f17 e7bb 2a7e 08bd 0a4a 5ebc
000001d0: e63b f9bc 7dbe 173d 1267 513c dda0 88bc
000001e0: 1474 ea3c db1b 8cb7 5f09 e73b 3837 3e3d
000001f0: 4c70 873c 4c74 db3c 586e a73c 1386 253d
00000200: e30e 9abc 1127 dfbb cbb1 163d 716d b4bb
00000210: ee7b f6bc 0479 893b ead7 20bd c670 10bc
00000220: de7f e2bc 946e 7ebc cbc9 10bd 2c27 eebc
00000230: e02c 523b 00ef bbb9 db57 033c ae5b b8bb
00000240: 9870 1b3d 683e 343c e4bf 05bc 1fa4 373d
00000250: 6a71 343c 6b37 713d f64c 3b3d ee7b 1c3d
00000260: aadd 453a bf87 d23c a8f5 36bc 1d64 b73c
00000270: 1b69 bb3c 530f 08bc 2948 733c f9fa 48bc
00000280: 3352 a4bc a269 8e3c eb2a d8bb 1997 8cbc
00000290: 2276 db3b 4152 d83b 2fcd 043b 9896 4d3c
000002a0: 00c8 37ba 5c88 04bd 9a12 03bc 0942 083d
000002b0: 29a8 a93c cbc1 4e3d 3a72 4d3d 778d a03c
000002c0: 49cc 0e3d b67e d83c 2d5c cfbb 76d3 f03c
000002d0: 11ad e2bb 29e3 ee3c 6adc 163d 31a3 dabc
000002e0: a8ec b2bc 5c3a 74bb 7828 88bc cc21 abbc
000002f0: 5feb 973c 2ba9 943b 0a78 2f3d 3ab9 9d3c
00000300: 13ae 6fbb 5d23 1cbc 982f e539 1dff dc3c
00000310: ef05 bbbc 3b73 2ebc 6a23 70ba a616 53bc
00000320: 0957 2f3d a7ce 343d cd18 0bbc 568d a7bc
00000330: 7ead 8f3b 8fda 5dbd 0624 52bc 22c5 a13c
00000340: c590 f03c 8d08 40bc a0ed 673c f884 b0bc
00000350: 6274 733c 6468 31bc 1a87 fe3c 305a b33a
00000360: e8e7 c03c 1f45 8bbc 0368 28bc 6a24 3c3c
00000370: 1588 473b 5677 b23c 877b 62bc 0177 0a3b
00000380: 2231 cfbc 5947 42bb a580 13bc 9fff 93bc
00000390: 4fbc 093d 1f18 e83c cbfd eebc 5523 11bd
000003a0: 0b4d 8cbd 6426 b7bd 3aea 65bd 41b7 56bd
000003b0: 27cf 11bd dc28 e1bc 9a84 873c 0f8b e5bb
000003c0: 6490 f33a 1512 86bc 6aa9 95bc 60d0 2dbc
000003d0: cc0d cb3c aac3 e83c fd17 0e3b 193a beba
000003e0: 8aed 103d 34b1 713c e545 f5bc 083b 73bc
000003f0: a98e 0a3d e266 edbc acc0 973c 1935 8b3c
-0.007836895 -0.0006975271 0.027048025 -0.02845038 0.032627765 -0.034492012 0.03373361 -0.025067028
-0.027509546 -0.0011807904 0.028025117 0.0031988136 -0.02433455 0.011091756 0.01388371 0.008965071
0.010191239 0.010002751 -0.017397214 0.035705034 0.028130125 -0.035685796 -0.0065791607 0.0076712035
-0.014172113 -0.030166687 0.028592374 0.00046710297 0.020264708 -0.010055972 -0.005741669 -0.013776898
0.006157284 -0.023079438 0.026644977 -0.008683998 -0.025588434 0.0277061 0.019194942 0.016861375
-0.005568699 0.024721738 0.031807635 -0.015397887 -0.0052246046 0.022565925 0.023112208 0.022599429
-0.010500934 -0.013221989 0.019743834 -0.020766547 -0.024000246 -0.013827091 0.03185943 0.018083725
-0.02851293 0.031087708 0.026995342 0.009678735 0.033236664 0.019456798 -0.014079611 -0.0055168415
-0.02093359 0.010306351 0.0028103823 -0.0075968583 0.00084357534 -0.025107156 0.006773137 -0.007822581
0.0052089584 0.023102747 0.013039747 -0.0077676843 0.0074338135 0.014233248 -0.037423313 -0.017326389
0.027714858 0.009419796 0.035323914 -0.01590832 0.010283664 -0.025935069 -1.5933067e-05 -0.017613534
-0.0052552633 0.014161637 0.000940427 0.0022126082 -0.014843291 -0.008740936 -0.014696964 0.019096611
-0.011945111 0.00681634 -0.009352296 -0.01111333 -0.0251545 -0.016499992 -0.032199387 0.017576473
-0.04782495 -0.05525308 -0.030634837 -0.046055183 0.0250591 0.034459 0.011999973 -0.011152344
0.005299296 -0.0070523466 -0.033323444 -0.013567457 -0.03042407 0.0370469 0.0127809215 -0.016678268
0.028619803 -1.6702272e-05 0.0070506777 0.04643938 0.01653304 0.026788853 0.020438358 0.040411066
-0.018805927 -0.006810077 0.03679065 -0.0055062105 -0.030088391 0.0041953344 -0.03926841 -0.00881595
-0.027648862 -0.015529294 -0.035348695 -0.029071413 0.0032070205 -0.00035845488 0.008016552 -0.0056261634
0.037949175 0.011001207 -0.008163426 0.044834252 0.011013368 0.05889074 0.045727693 0.038204126
0.0007547984 0.025699494 -0.011166967 0.022386605 0.022877267 -0.008304435 0.014848747 -0.012266868
-0.020058727 0.017384354 -0.006596913 -0.017161893 0.006697432 0.0066016023 0.00202639 0.012548111
-0.00070106983 -0.032356605 -0.00800004 0.0332661 0.020710068 0.050477784 0.050157763 0.019598706
0.03486279 0.026427608 -0.006328127 0.029397707 -0.006917604 0.029161053 0.036831297 -0.026689144
-0.021841362 -0.003726623 -0.01662086 -0.020890139 0.01854485 0.004536768 0.042839088 0.019253362
-0.0036572262 -0.009529916 0.00043713744 0.026977116 -0.022829978 -0.01064759 -0.00091605505 -0.012883818
0.042807613 0.04414239 -0.0084898 -0.020453136 0.0043846956 -0.05416351 -0.0128259715 0.01974732
0.029365906 -0.011720789 0.014155775 -0.02154778 0.014859291 -0.010828111 0.03107028 0.0013683494
0.023548082 -0.017000733 -0.010278705 0.011483291 0.0030446101 0.02178542 -0.0138233965 0.002112806
-0.025291983 -0.0029644577 -0.009002839 -0.018066226 0.03362685 0.028331814 -0.029173752 -0.035434086
-0.06850632 -0.08942869 -0.05613158 -0.05242086 -0.035597946 -0.027485304 0.016542722 -0.0070051025
0.001858246 -0.016366044 -0.01826926 -0.0106087625 0.024786852 0.028413612 0.0021681779 -0.0014513164
0.035382785 0.014751721 -0.029940555 -0.014845617 0.033827458 -0.028979722 0.01852449 0.016993092

bias f4 [150]
00000000: 0284 313d 4f0c 73bd bb43 25bd 484f c9bc
00000010: 5e49 02be 5d55 e63d d49a 63bd 5c3e fc3d
00000020: 60cb 8f3d 5c89 01bd 4b03 2d3d 5e3c 603b
00000030: e591 9b3d 86c3 21be 4f38 edbd 571d 1f3d
00000040: c23a 0f3d 4f19 293d 2a7e 3a3d 72cb 84bc
00000050: 1830 323d 90f4 8abc 4003 6e3d c9d4 583d
00000060: 2513 df3d d00e c2ba e74b a6bc bd7b acbc
00000070: 8113 443b daff 013c 6ddd c4bc 8d4b d13d
00000080: 40a4 d93d 80bd a7bc 134a 243d a664 0c3b
00000090: 24de dd3d 9d0e 963c 3f12 a2bd 4e47 fdbc
000000a0: eb41 d5bc 5a64 b43d 6eb0 4dbd ff83 073e
000000b0: 180f c53d 8124 a73d e1f9 733b 46e3 1e3d
000000c0: 27ab 503b fc9e f2bb 96dc 93bd 9cc3 453d
000000d0: e8f1 0abd 7c34 2f3d 5841 143d a23c ae3d
000000e0: af49 a6bd 2f13 493b b700 e2bd ea9d e0bb
000000f0: 8cd7 093d 6136 2fbd 03ce cf3c daed 5cbd
00000100: d09b a0bd a9d6 30bd 17bd d93a 5189 9cbb
00000110: 4cb8 d3bb 9b9d 4cbd 6773 96bd 9664 fa3c
00000120: 710d 163c e251 243e 491e 0abe 495e b93d
00000130: 6c52 80bd 5b5b e83d e324 0b3d 27dd 01be
00000140: 85ec fb3a 5ba1 f3bc 1671 79ba 213a 4f3e
00000150: 3c49 8f3d ef4b 66bc 0042 2e3c 0ecd 0ebd
00000160: be47 613c 071d e2bc 1928 973c 65cf 4dbd
00000170: 26ea 20bd 45a8 123c c476 593d 373c 5a3c
00000180: e049 36bd 3e0e b43d 5e7c 363e c1f1 ee3d
00000190: afaa 36bd 975b 2c3d e05d 9bbd 4d4f 0f3d
000001a0: 6feb 063d 1c0a be3d 1819 50bc 902d 1f3c
000001b0: d664 bfbd e010 b6bd 3a3f 2dbc 2bee 09be
000001c0: 20fe 9bbd a976 523d cb4f b13c 1687 28bd
000001d0: 36b3 e33c 4947 373c 5be0 ba3b 8356 28be
000001e0: 3dbc 2dbd d944 f53d 0eb0 263d b519 233d
000001f0: d581 06be a160 ea3d 7eae a93d b269 ebbd
00000200: 7022 09be b45c 8fbc cc14 073d 24cb abbd
00000210: e089 b4bd 8c8d 08bc 3d6d dabd a8f5 c73d
00000220: 33a4 d0bd a0a3 053e 0053 063d dd1f 5d3d
00000230: 1ce3 6b3d 5672 8b3c 36fb 3bbd 317b 9e3d
00000240: a7a3 833d 5da0 453d edda 12bc afef fbba
00000250: 3ee2 673c 169c 3d3c
0.043338783 -0.05933791 -0.040347796 -0.024573937 -0.127233 0.112467505 -0.055567577 0.123165816
0.070212126 -0.031625137 0.04223947 0.003421567 0.075961865 -0.15797243 -0.11583006 0.03884634
0.034968145 0.0412839 0.045530476 -0.016210292 0.043502897 -0.01696232 0.05810857 0.052937303
0.108923234 -0.001480544 -0.020299865 -0.021055097 0.0029918852 0.007934535 -0.024031365 0.10219488
0.10627031 -0.020476103 0.040109705 0.0021422296 0.108333856 0.018317515 -0.079136364 -0.03091779
-0.026032409 0.08808203 -0.050217085 0.13233946 0.096220195 0.081612594 0.0037227797 0.038790964
0.0031840296 -0.0074042063 -0.07219808 0.04828225 -0.033922106 0.042774662 0.03619513 0.085076585
-0.08119523 0.00306816 -0.110352926 -0.0068547623 0.033652827 -0.04277647 0.025366789 -0.05393777
-0.07842219 -0.043173466 0.0016612139 -0.0047771116 -0.006461179 -0.04995499 -0.0734623 0.030565541
0.009158478 0.16046861 -0.13488115 0.090511866 -0.06265721 0.1134555 0.033970725 -0.12682019
0.0019220269 -0.029740026 -0.00095154473 0.20237018 0.0699639 -0.01405619 0.010635853 -0.034863524
0.013750015 -0.027601732 0.018451737 -0.050246615 -0.0392858 0.008951251 0.05309178 0.01332002
-0.044504046 0.08791779 0.1782088 0.11667205 -0.04459637 0.042079534 -0.075862646 0.034987736
0.03293937 0.09279272 -0.012701295 0.009715453 -0.09345405 -0.088899374 -0.010574156 -0.1346976
-0.0761683 0.051382694 0.021644494 -0.041144453 0.027795415 0.011186429 0.005703015 -0.16439252
-0.042415846 0.11976022 0.040695243 0.039819438 -0.13135464 0.11444212 0.08285235 -0.11494769
-0.13392043 -0.017500259 0.032978818 -0.083883554 -0.0881536 -0.008334529 -0.10665367 0.09763652
-0.101875685 0.13050699 0.032794 0.053985465 0.057589635 0.017022293 -0.04589387 0.07738341
0.064276986 0.048248637 -0.008963329 -0.0019221212 0.014153061 0.011572858

weight f4 [100, 150]
00000000: eea0 ccbd 84c7 e23c 9bb5 763d d68c c2bc
00000010: 8b50 2abd 63ce f6bd e83e 17bd 0baf eb3c
00000020: baf1 5d3d 14f1 64bd 62f7 24bc f3e4 06bd
00000030: 25be 853d 5b29 4d3d e7df 543d e2b2 58bd
00000040: 0437 fcbd c584 11be 96a5 643d 8921 973c
00000050: 4413 603d 4e33 de3b b992 4abd 1764 c0bd
00000060: 7af0 51bc 8b48 833d 1fdd 753d 3cb9 143e
00000070: b8cd 173c e428 e1bc 6403 703c 99d8 b7bd
00000080: 8d74 6b3d fc85 2c3e dc6b fa3c 8867 983c
00000090: 08d1 0abe 0688 163e 6e9f b03d 2a71 31bd
000000a0: 1ae7 343c eb2e 86bb 6c5f 60bc 3d16 4fbd
000000b0: 8f95 8abc 9429 65bd af4b 7b3c c689 95bd
000000c0: 1d70 91bd 1ad0 7b3d 69d2 e23c 72c4 db3c
000000d0: dc63 58bd 44f5 c2bd b86f f1bd e484 c0bd
000000e0: ae86 2d3d fc95 48bb 1a11 bb3c 566f 793d
000000f0: 5bf0 1c3d cd58 ba3c 42bb f0bd a58f d1bc
00000100: 6f2b cfbc 66b4 cbbd fefa f9bd ad87 b53d
00000110: 23a6 7bbd 532a 0bbd cb24 4f3d d074 c53c
00000120: dd4a 04bd 026b 60bd cb6f 113e dc45 e9bd
00000130: 8de2 41bd f4d3 5abb 6e36 013d 185c df3c
00000140: f90f d6bc 9b5d 98bc 4252 7abd 1bf0 cfbd
00000150: e5c2 aebd 470a 1ebd a74e 383c d014 dc3d
00000160: 49ad f73c 986a f23c 3868 1ebc 832a fc3c
00000170: fc04 f43c a8ff 57bd e6cb 233d b4ab 1d3c
00000180: bce5 ba3d 748f c8bd e336 06be 2349 9dbd
00000190: 6c54 b0bd 6ffc 8f3d 256d 403c 953f cbbc
000001a0: cb37 543d e464 08be e49e 19be c5c0 e9bc
000001b0: 02db 5dbd d101 bb3d d1b7 1c3d 49fd 143e
000001c0: 0320 a6bd 47e0 be3d 2e3b b83c 9875 b03c
000001d0: 3b9a 1ebe fcf1 abbc 63c1 9dbd a656 1a3e
000001e0: fab8 033d 4d3d 88bd 5b38 083d 5ac6 4cbc
000001f0: 16bf 3fbc 963a 43bd 8cab a43c e156 2d3d
00000200: 5ee3 fc3d bd51 bebd 6810 a8bd 7e88 1d3c
00000210: e4c8 993d cec6 f33c eeb4 503d 6678 433d
00000220: 001a 27bc e869 c5bd aaca 2ebc c45f d3bd
00000230: 7329 5abd 1176 78bd 5732 d73c 04a4 cabd
00000240: 26d7 7fbd d57d 88bd a2ec 853b 2b5c db3d
00000250: 56f6 04be 30aa 763d 0f7c 84bb 4f40 143d
00000260: 2fb3 bf3d 351b bc3d a52a 943d e518 5f3c
00000270: 5d53 17be f919 cebd c846 91bb 0195 6c3e
00000280: 9b03 243d ae61 88bd 06f4 cbbc cc4b eb3c
00000290: 859f b43c f72a 9e3d 7e2d a8bc 7b8d afbc
000002a0: 8753 163d 9466 03be d573 643e 979f a3bd
000002b0: 56e6 1e3b 5414 ec3d f6a1 a93d b785 773d
000002c0: af60 9b3d dafe 7f3c 04c9 fd3c 0c7d cf3a
000002d0: 95c8 fa3c b832 59bc 890f 9dbc 4671 9ebc
000002e0: 17c9 56bd 483e 483e bbbb 63bd 6e78 303e
000002f0: b801 413c 27b3 a43d 584b e8bc 5011 9ebd
00000300: 87f1 253b e3bc 41b8 3097 543d 0dcb c23d
00000310: f027 933d 8045 4ebd bcef 283c 199e ddbc
00000320: fcc6 493d 2462 c2bd 2af7 aebd b922 483d
00000330: 6733 f9bd 0d55 803d 468f 0bbe 9cba 603c
00000340: 1c92 abbd cb76 2abe bbfb 303d a5c3 443d
00000350: 3729 983d 04a9 68bd c2b1 cf3d 8dff 893c
00000360: dd39 fe3c 04c6 c23d 521d 23bd a96d 183e
00000370: d187 b13d b3ae 163d a9a6 01be e5b0 edba
00000380: 5d77 86bd ee1b 2cbd c9d7 c5bc 409e b13d
00000390: 9e39 de3c c71b 4cbc 01c6 f8b9 ea38 d4bd
000003a0: d630 203e 8f43 2d3d 391a c7bd 3c66 6b3d
000003b0: 9b86 6f3d ca95 cabc f647 8cbc 6368 f43d
000003c0: 3fc9 2c3b 780c 19bd e8d5 91bd 1955 b0bd
000003d0: 943a 5ebd fd97 9f3d 4e22 4ebd 2dfd f2bd
000003e0: de90 d93c 746e 3cbd 0e23 adbd 6b71 17bd
000003f0: 82ce e3bb 18ff 02bd 385b 0cbe 3cdb e83b
-0.099916324 0.027683027 0.060231786 -0.023748796 -0.041580718 -0.12051084 -0.036925226 0.02876999
0.054185607 -0.055893973 -0.010068746 -0.032933187 0.06530408 0.050088268 0.051971342 -0.05290497
-0.12315181 -0.14210804 0.055821978 0.018448608 0.054705873 0.0067810183 -0.049456332 -0.093940906
-0.012813682 0.06410321 0.06002533 0.14523786 0.009265356 -0.027485318 0.014649246 -0.089768596
0.0574842 0.16847986 0.03056901 0.018604055 -0.13556302 0.14700326 0.08624159 -0.043320812
0.011041427 -0.0040949485 -0.013694625 -0.050558317 -0.016917018 -0.055947855 0.015337869 -0.07301669
-0.07101462 0.061477758 0.027688222 0.02682707 -0.05282961 -0.09519437 -0.11788887 -0.09400347
0.04236477 -0.0030606976 0.022835303 0.060897194 0.03831516 0.022747422 -0.117544666 -0.02558119
-0.025289265 -0.09946518 -0.12206076 0.08863769 -0.061437737 -0.03397591 0.050572198 0.024103552
-0.032297958 -0.05478955 0.14202802 -0.11390278 -0.047335196 -0.0033390494 0.03154605 0.027265593
-0.026130663 -0.018599322 -0.061113603 -0.10153218 -0.08533267 -0.03858402 0.011249221 0.10746157
0.030233996 0.029591843 -0.009668402 0.03078199 0.029787533 -0.052734047 0.039989375 0.009623457
0.091258496 -0.097929865 -0.13106875 -0.07679965 -0.08609852 0.0703057 0.011744772 -0.024810592
0.05181102 -0.13319737 -0.15002018 -0.028534302 -0.05416394 0.09131206 0.03826124 0.14549746
-0.081115745 0.09320121 0.022489157 0.021540448 -0.15488522 -0.02098941 -0.07702901 0.15072116
0.03215883 -0.06652317 0.03325687 -0.012498463 -0.011703273 -0.047663294 0.020101331 0.042319182
0.12348054 -0.09292934 -0.08206254 0.009615062 0.0750902 0.029757883 0.050953798 0.047722243
-0.01019907 -0.09639341 -0.010668436 -0.10321 -0.053262185 -0.060659472 0.026269121 -0.09894565
-0.06246104 -0.066646256 0.0040870467 0.10710939 -0.12984595 0.060220897 -0.0040431092 0.036194142
0.093603484 0.09184877 0.07234696 0.013616775 -0.14777894 -0.10063548 -0.0044334866 0.23103715
0.0400425 -0.06659256 -0.024896633 0.028722666 0.022048721 0.07723039 -0.020529505 -0.021429768
0.03670075 -0.12832099 0.22309811 -0.07989424 0.0024246178 0.11527315 0.08282845 0.060430255
0.075868 0.015624726 0.03097964 0.0015830114 0.030613223 -0.013256721 -0.019172447 -0.019341122
-0.052437868 0.19555008 -0.055598956 0.1723344 0.011780195 0.08041983 -0.02835624 -0.07718146
0.0025320963 -4.61907e-05 0.051901996 0.09511385 0.07185352 -0.05035925 0.010311063 -0.027052926
0.049262032 -0.09491375 -0.085432366 0.04886124 -0.12168007 0.06266222 -0.13628873 0.013716366
-0.083774775 -0.16646878 0.04320882 0.048038144 0.07429736 -0.05680181 0.101413265 0.016845489
0.03103345 0.09510425 -0.039822884 0.14885582 0.08668483 0.0367877 -0.12661232 -0.0018134384
-0.065657355 -0.042018823 -0.024150746 0.08672762 0.027127083 -0.0124577945 -0.0004744977 -0.10362418
0.1564363 0.042300757 -0.097217984 0.057470545 0.05847798 -0.024729628 -0.017124157 0.11933973
0.002636507 -0.037365407 -0.071208775 -0.08609981 -0.054255083 0.07792661 -0.050325684 -0.11864696
0.026558336 -0.046003774 -0.08453952 -0.0369734 -0.006952108 -0.031981558 -0.13706672 0.007106213

bias f4 [100]
00000000: 0d75 ec3d 138a 8d3d 167e 053e 445c 233e
00000010: f3e4 44bd 0c7a b53d 4574 153e beb1 073e
00000020: 9b51 f53d 7acb 0a3e 98b9 01bc 4de1 0f3e
00000030: a298 113e 6059 ae3d 5781 b13d 1c4e 633d
00000040: a1d1 053d 503c 333d 4484 8a3c c8e3 013e
00000050: 2801 9e3c 0eb1 d53d 8fe3 e03c f147 28bc
00000060: 5e37 4d3d 0804 96bb af37 273e 99e3 653d
00000070: b263 113e 7e8d dc3d d143 4f3d 1363 2cbd
00000080: 688c 863d 0a0f 9a3d f36f b33d 24b8 473e
00000090: b3af 3b3e b176 653d eb54 cd3d 2c25 fd3c
000000a0: 4462 d33d ad19 863d c228 a23c 670a 0abc
000000b0: 905d 733d 62cf 0b3e 63f8 3a3e 27ef 1e3e
000000c0: dd1b 4c3e 7106 813d 6385 8a3d c81d 123e
000000d0: 7093 a13d 247d 2d38 8091 053d 5a43 983d
000000e0: 3d68 e13c b270 d13b 1a49 8c3d 3525 793c
000000f0: a24b 873d 8437 8f3a 313d ae3d f03c 873d
00000100: ed64 003e 61df a43d de8c 2c3e f9d6 9d3d
00000110: 3140 d6bc 45df 623d ad4f 073d 479e d93b
00000120: dadf 6e3c 901e 5b3e e6f1 f13d 468a b53d
00000130: f4cf 303e a675 2bbd bad4 e23d bab2 183e
00000140: f1d8 2d3d 8d2f a73d e9b1 683d f24b 1c3e
00000150: 523c 34bb a649 be3c 2d54 853d 313e 773d
00000160: a8d2 d63d 0f8d 653d db0a 19bd 9f7a 843d
00000170: 5bee eb3d f431 ff3c 9f1c 7b3d a049 2abd
00000180: 178f c93d 4b2e b2bc 6008 073d b813 913d
0.11545763 0.06911101 0.13036379 0.15953165 -0.048069905 0.08861169 0.14595135 0.13251397
0.11978456 0.13554183 -0.007917784 0.14050789 0.14218381 0.08513141 0.08667248 0.055494413
0.03267062 0.04375869 0.016908772 0.12684548 0.01928766 0.10434161 0.027452258 -0.010271058
0.05010163 -0.0045781173 0.16329835 0.056125257 0.14198187 0.10769175 0.050601784 -0.042086672
0.06569749 0.075224 0.08761587 0.19503838 0.18328743 0.056021396 0.100259624 0.030901514
0.10321477 0.06547866 0.019794825 -0.008425332 0.0594154 0.13653329 0.18258815 0.15520917
0.19932504 0.06300057 0.06763723 0.14269173 0.078894496 4.136296e-05 0.032609463 0.07434721
0.027515525 0.006391608 0.068498805 0.015206625 0.06606223 0.0010926579 0.08507765 0.0660342
0.125385 0.08050419 0.16850612 0.077070184 -0.026153656 0.055388708 0.03303497 0.0066411826
0.014579738 0.21398377 0.118137166 0.08864264 0.17266828 -0.041860245 0.110757306 0.14911929
0.04244322 0.081633665 0.056810293 0.15263346 -0.0027501774 0.023228478 0.06510196 0.060362045
0.10489398 0.056042727 -0.03736387 0.064687006 0.11520072 0.03115175 0.061306592 -0.04157412
0.09841745 -0.02175059 0.03296697 0.07083839

weight f4 [10, 100]
00000000: e9be bdbd f96d a63e 01f7 7a3e c6b7 263e
00000010: a060 8e3e 83f2 1ebe f572 8cbe bf55 09be
00000020: 3cb7 9c3e 249c 99bc 761d 473e aa36 0e3e
00000030: 6e57 9abe 5008 38be b473 27be 27fd 8a3e
00000040: 66c4 443d 73b2 423e df64 88be 9c8e 8abe
00000050: 2433 5a3e 76ba a53e 529a 703c ab78 b9bd
00000060: 62bb 93be 26e9 7f3e daf5 dabe f07a 6b3e
00000070: 3260 8dbe 2e8d 89be b24e cabe 9e27 73be
00000080: c7ce b6be 8427 7e3e a305 8b3e c1ea 823e
00000090: 6837 6d3e 982d 50be 2a20 5f3e 7202 e33d
000000a0: 4625 15be 9f9e 863e 1e37 833e 59a6 a83d
000000b0: 9d72 3e3e 5a7f 5abe 97cc 44bd 8ca5 48bd
000000c0: 7618 2fbe 59b9 493c 4ccd 7fbe ab6b 0ebe
000000d0: c4d7 903e c614 fabd 4eed 073e 515c 59be
000000e0: 0fbe 3dbe 7301 8c3e 7ea5 5abe 182c 82be
000000f0: 73f1 3c3c a664 d63e 4755 4a3e fc04 8e3e
00000100: 339f 1a3e f0d3 933e 242f cabe 6252 82be
00000110: 93c3 dcbd b7d3 8d3e 2569 26be 7cb9 a43c
00000120: c83c 93be 2e24 f3be a68d 68be c8dd 5bbe
00000130: 882d 4ebe 8d58 6ebd 4939 6c3e 870f 29be
00000140: aa46 0cbc 4341 b23e c412 28bc 2d4a aebe
00000150: 6e4a 3cbd 6357 1ebe ab39 683e 8328 48be
00000160: 2fbe c7be adb3 0bbe af16 3dbe 2db6 d7be
00000170: df66 3b3e 7122 683e 0d9f ffbd 6d98 3a3e
00000180: 12cc 95be 85c8 d83d c049 6bbe 6e50 4dbe
00000190: fa43 1bbe 03e2 9cbe ffed bbbe 9871 6abe
000001a0: b130 44bd 99e5 763e 1ac0 7f3e e955 42be
000001b0: 9028 62be 33cf 9abe cba6 35be b8ba 093e
000001c0: 8b48 593e 423e f8bc 7740 ae3e db69 4dbd
000001d0: 067a 8e3d af4f a8be 4d29 b9be 71b6 b53d
000001e0: 6b87 86be 54ef 343c 6364 79be e111 cc3e
000001f0: 4f29 863e 589b 3cbe 31fc 863e 168d 62be
00000200: 2a2d 743e 9d19 82be 6519 adbd 7e81 ccbc
00000210: bd3c 9f3e 8c92 bebe fd96 ebbd 3078 a9be
00000220: 33ea 913e 03f6 90bb ddf7 00bf ee4f 86bd
00000230: f8e8 d43c 7e27 57be a432 32be fd68 13bd
00000240: a5cc 7abe f9f4 973e 1402 603e f717 6cbe
00000250: d407 8c3e ee35 febd f674 963e 2fa4 063d
00000260: 0fb8 a03e c5ed 48be c819 9cbd c141 833e
00000270: 6630 d23c 742d 20be 578e 083e 0d7e b33e
00000280: cd23 febd 3a66 fa3c d5cb 3f3e c041 45be
00000290: fc59 b2be 48d9 9dbe 5149 333d aa39 16be
000002a0: 3e7b 75be ab0d c6be 77ae 893e 864b 8a3e
000002b0: 2c46 603e b23f 8f3e 6044 b83e 5f33 4d3e
000002c0: e67a 1a3e 109e 14bd 3b58 e4bd b6a0 973e
000002d0: b786 37be 1ab3 8dbe 75b2 b03e 7ff8 8f3e
000002e0: 89d9 96be d0ce 8abe 4e21 1fbe 7ded c13e
000002f0: a554 583e 4126 60be 294e ffbd 6ce5 903e
00000300: dfd0 f1be a1a4 bfbe 2080 96be 203a 20be
00000310: abff 82be 41f8 3abe 4c37 933e 4b2f 9f3e
00000320: c882 8b3d 43b4 823e a0c2 ff3d 29f9 7cbe
00000330: 4a94 573c b5f5 fd3d f3cf c5be 19f8 80bd
00000340: 88aa 9ebd d706 75bc a9af 7d3e 93d7 17be
00000350: 4b0a 093e fb1b dfbd 59fa 893e 156c bbbd
00000360: fcdd cbbd 7f85 2f3e e9c0 1bbe 8233 243d
00000370: 5dfd ebbd f941 7ebe 73dd 61be cd38 123d
00000380: 74d4 a03e 9f13 893e 72f2 82be 51f1 9e3d
00000390: 60da 2dbc 84f6 38bd 39f3 a9be 511b 1a3c
000003a0: f430 923e 587d 343e a5df 883d 83a3 61be
000003b0: 6dd1 9abe 8e88 0f3e 32cf 52be 4952 453e
000003c0: f636 5a3e e868 2b3e 0da8 0dbe 5399 943b
000003d0: e39c 2b3e 97b4 ebbd f4d1 883d 5d1a 9d3e
000003e0: e066 b4be dbf2 583e 2594 5f3e 8416 86bd
000003f0: a96a 033e 57b2 703e 9357 c03d 78a0 d63d
-0.09264929 0.32505777 0.24508287 0.16281042 0.27808094 -0.15522198 -0.27431455 -0.13411616
0.30608547 -0.018751211 0.19444832 0.1388804 -0.3014483 -0.17971921 -0.16352731 0.27146265
0.048038863 0.19013385 -0.2663946 -0.27061927 0.21308571 0.3236882 0.01468523 -0.09056219
-0.288539 0.24991283 -0.42765695 0.22996116 -0.27612454 -0.26865524 -0.39513165 -0.23745582
-0.35704634 0.24819762 0.27152738 0.25569728 0.23165667 -0.20329893 0.21789613 0.11084451
-0.14565 0.26292893 0.2562799 0.08234853 0.18598409 -0.21337643 -0.048046675 -0.048986003
-0.17099175 0.012312257 -0.24980658 -0.1390826 0.28289616 -0.122109935 0.13274118 -0.21226622
-0.18529533 0.27344856 -0.21352193 -0.25424266 0.011532175 0.41873664 0.19759093 0.27738178
0.15099792 0.28872633 -0.3948909 -0.25453478 -0.1077949 0.27700588 -0.16251047 0.020107977
-0.2875731 -0.4748854 -0.22710285 -0.21471322 -0.20134556 -0.058189917 0.23068728 -0.1650983
-0.0085617695 0.34815416 -0.01025838 -0.34040967 -0.04596942 -0.15463023 0.22678249 -0.19546704
-0.39012286 -0.1364276 -0.18465684 -0.42131177 0.18300961 0.22669388 -0.124815084 0.18222208
-0.29257256 0.10585121 -0.22977352 -0.20050213 -0.1516265 -0.30641183 -0.36705014 -0.22894895
-0.047898 0.24111022 0.24975625 -0.18978085 -0.22085786 -0.30236205 -0.17739408 0.13450134
0.21219079 -0.030303124 0.34033558 -0.05014978 0.06956868 -0.32873294 -0.36164322 0.088726886
-0.2627519 0.011043388 -0.243547 0.3985739 0.2620339 -0.18418634 0.26364282 -0.22124133
0.23845354 -0.25410166 -0.08452109 -0.02496409 0.31101027 -0.3722118 -0.11503408 -0.33099508
0.28498992 -0.004423858 -0.5037821 -0.06558214 0.025989994 -0.21011159 -0.1740213 -0.035988797
-0.24492128 0.29679087 0.21875793 -0.23056017 0.27349722 -0.1241263 0.2938611 0.03287142
0.31390426 -0.19621952 -0.07622105 0.25636104 0.025657844 -0.15642339 0.13335548 0.35057107
-0.12409172 0.030566324 0.187301 -0.19263363 -0.34834278 -0.30829835 0.04377109 -0.14670435
-0.23972794 -0.38682303 0.2689092 0.27010745 0.21901768 0.27978283 0.35989666 0.20039128
0.15085945 -0.036283553 -0.11149641 0.296148 -0.17922483 -0.27675706 0.34511152 0.28119275
-0.2946284 -0.2711091 -0.15540048 0.37876502 0.2112604 -0.21889593 -0.1246608 0.28300035
-0.47229668 -0.3743029 -0.29394627 -0.15647173 -0.25585684 -0.18258764 0.28753126 0.3109077
0.06812054 0.25528154 0.12488294 -0.24704422 0.013157913 0.124003805 -0.38635215 -0.06297321
-0.0774737 -0.014955244 0.2477404 -0.14828329 0.13382833 -0.10894009 0.26948813 -0.091514744
-0.099544495 0.17140768 -0.15210308 0.040088184 -0.115229346 -0.24829854 -0.22057132 0.0356987
0.3141209 0.26772782 -0.25575596 0.07760871 -0.010611147 -0.04515697 -0.33193377 0.009405927
0.28552973 0.1762594 0.06683282 -0.22035031 -0.30237904 0.14016935 -0.20586851 0.1926967
0.21310028 0.16739237 -0.13833638 0.0045348792 0.16759066 -0.11509054 0.066806704 0.30684176
-0.35234737 0.21186392 0.21833856 -0.06547263 0.12833656 0.23505531 0.093917035 0.10479826

bias f4 [10]
00000000: bcfe 00be c0ee 573e 0838 2fbe 6a13 03be
00000010: a58a bb3c f8ed 853d f562 d73d fd77 ffbc
00000020: 3279 babd 30bc 2dbd
-0.12597173 0.2108717 -0.17111218 -0.12800375 0.02289326 0.065395296 0.105169214 -0.031185145
-0.091051474 -0.042415798
